Weights/best_model.pt (torch, 365156 bytes, 8 tensors)

gcn1.bias f4 [64]
00000000: 5069 03bd 4626 e7bb ba61 85bd 3ad6 4a3b
00000010: f831 133b 6f94 52bc 00fb e7bc 9b09 17bc
00000020: 8b86 2b3c 8fed 12bd e5a2 27bd 306e e9bc
00000030: feb7 8c3c f729 cabc c3be abbc bd18 ffbd
00000040: d818 b5bd 95a5 0bbd 45ed 41bb 39a6 d1bd
00000050: 472f 92bd bea5 09bc ebbf bcbd 1bea a9bc
00000060: a4de a0bd 9e37 6d3d fc2d 30bd a008 1fbd
00000070: 04a3 35bd 905a 72bd d4b8 6c3c d84a 9dbc
00000080: 1a36 32bd 0989 24bd 3b5f eabc 1097 a9bc
00000090: fd64 fbbc d97d 78bd 4eb7 5bbd d7ab 77bc
000000a0: f98e aebd 420b d2bc ff6c d0bc 0618 c83b
000000b0: a615 83bc 21ba 6e3b 2f20 72bd e468 58bd
000000c0: 7e48 b23b 2351 5d3c e22b 50bc 1fd3 913c
000000d0: 2b2a c4bd 38d3 d039 a7a9 13bd 4577 c6bc
000000e0: bef0 463b ddc7 74bd 0bab b4bd 095d 353c
000000f0: 875d 93bd a43e 2fbd c4cf 56bc cb90 41bd
-0.032082856 -0.007054123 -0.065127805 0.0030950443 0.0022460204 -0.012852772 -0.028317928 -0.009218599
0.010469089 -0.035871085 -0.040926833 -0.028494924 0.017177578 -0.024678214 -0.020964986 -0.1245589
-0.08842629 -0.03409346 -0.0029590887 -0.102367826 -0.07137924 -0.008401332 -0.09216293 -0.020741513
-0.07854965 0.05791437 -0.043012604 -0.038826585 -0.044344917 -0.0591684 0.014448363 -0.019200727
-0.043508627 -0.04016975 -0.028609863 -0.020701915 -0.030687803 -0.060666893 -0.05364161 -0.015116653
-0.085233636 -0.025640134 -0.025442598 0.0061063794 -0.016001534 0.003642686 -0.059112724 -0.052834406
0.0054407706 0.013508114 -0.012705775 0.017800866 -0.095783554 0.00039830222 -0.036050465 -0.024226794
0.0030355896 -0.059760917 -0.08821686 0.011069545 -0.07195573 -0.042784348 -0.013111059 -0.047257226

gcn1.lin.weight f4 [64, 1280]
00000000: e9ee 9d3e d98e c7bd e869 1ebd c6eb 8c3e
00000010: e8e2 2c3e 60e5 463d 4db7 e5bd 155b 4abe
00000020: 4e6b 653e 61fe 173e fe56 053e 87a9 8abe
00000030: 6144 d03d 2a3f 91bd 6d2e 953d 1991 40bd
00000040: f2dd 5abe 03c1 f4bd c867 e53c cebd b23d
00000050: 0f15 893d 91ff ad3e ed24 83be c6b9 7dbe
00000060: e769 61be 92ad 003e c6fe 2dbe 90bb 0a3e
00000070: f5c2 913a 3c1a 3cbd bdc1 0b3e f547 593e
00000080: 5434 423e db38 aa3c 0755 acbd 7825 7d3e
00000090: 4b55 37be a307 f03e a5d0 c63d 5940 5bbe
000000a0: 93f6 1fbe 20b3 03bd a759 f6bd 8332 7ebe
000000b0: 0098 653e 225f 8a3e f15a d7bc d54f 7dbe
000000c0: 6532 e6bd 615d 783d e82c d5bc ac10 5cbe
000000d0: 7f36 3c3e 1993 acbd 1ca0 163e 326f 113e
000000e0: 1429 dabd de41 50bd 99c3 9abd f2cd 083e
000000f0: 8e33 c93d ae98 d73e 6e63 9dbd 0d1a bc3d
00000100: e12f c0bc 47fd b53e e30b 0e3e ead9 563e
00000110: c2f8 05bf a3ad 5c3e b0d6 8cbe 5c57 afbc
00000120: 1a1a a9be f0a2 303d cba5 0d3e 32a1 43be
00000130: 55ee 623e 4ce0 833d 4bbe ccbc aae1 923e
00000140: 0dde eb3d 7104 053d 41c0 9cbd 5e0b c1bd
00000150: a01b f03d 807d 993b f197 d9be 8d56 763d
00000160: c6ae 033e 74d4 a83e 09e0 01bb cde2 1a3e
00000170: 890b 3e3e cd5f a13d f081 7fbe 5852 ddbd
00000180: d173 00be b26a b8bd c481 343e f15b 203e
00000190: 4fd2 d43d c737 5b3e 5f2b 27be 7f8e 05be
000001a0: ff1d c43e 4f2e 333e 0b3c 6fbe b6f6 3f3d
000001b0: 89bf 7cbd 7173 52bc 5e20 853e eb5d b63e
000001c0: ba4b fcbd cc04 5abe ef00 603e cf95 4f3c
000001d0: f2f9 e03d 0081 e33c bef0 3c3e 6a48 a4be
000001e0: aee4 703e 9a36 a7be ef36 b2bd 64ec 053c
000001f0: a0c2 52be ca70 4f3d 6223 623d e574 19be
00000200: b87b 133e a3c9 88bd e5e7 05be efbc 48be
00000210: 58e6 29bc c7f8 b43d 0bdc 04be b638 1b3d
00000220: 9448 0c3e 4d9b c03d 6293 bbbd 727e 363d
00000230: 5d9b 03be 82db ecbc d9ee 2b3e 0cc2 8b3c
00000240: 24ce 7ebd 48a3 1abd 14df afbc 6680 cbbd
00000250: 5583 1d3e 0d4b abbe 8532 edbd 343d 29bd
00000260: bff7 c9be 710b 49be 6a80 3a3c 21f4 cbbc
00000270: cf5d 1b3e 5202 843c ac61 053e 60bd 00bf
00000280: d2ed 9ebd 5859 693d 74e0 17bd 3694 6cbd
00000290: 042a a33c 5c3b c83c 0d80 85bc 60aa dbbe
000002a0: c0c6 873e 3d0f 91be d4a3 a43d e072 1a3b
000002b0: cc01 99bd 29f1 ce3e 7ebe c53e d045 913d
000002c0: 236d 28be 8f18 cf3d 37ad c63d d24b 0c3e
000002d0: 1f28 833e 23fa ad3e c0a4 f73d 9feb a3bd
000002e0: bc55 f0bd 6759 ecbd f940 973d 21ba aabe
000002f0: 6ef0 633e b8db 4a3e 74fd 09be 02a0 243d
00000300: 7083 01bd 5d29 7b3e 3401 fdbd 0666 2a3e
00000310: 435b 353e 79da cbbe 65df 42be 0f78 193c
00000320: 4d4f 91be 617d b5bd aa53 22bd d8a6 683d
00000330: d34d 833e f071 1b3e 560d 56bd fd89 5e3e
00000340: 3230 e53c 6f21 183e 3bab 1c3d 299e 813d
00000350: 4b91 4fbe 061f 183e 7e6c a2be 5ea8 7c3e
00000360: 4f9d 33be adac ef3d f25e d83c e26e 97bd
00000370: 06ba b03d c4c5 96bc ebff 2cbe e1f8 d93c
00000380: 3cb8 853d 1d02 a6be f67a 6d3d 9b99 9ebd
00000390: f587 ff3d f57a a53e f832 b83d c3bd ed3d
000003a0: 78b4 0b3a 2901 a23e 8ece fabd 326f 7fbe
000003b0: 79e9 1cbe 2728 913d 0efc 8a3e 3825 dabe
000003c0: ccb8 133e 3dd7 78be 48e6 f2bd 19ee f33d
000003d0: afd2 27be 16c6 e1bd 92f6 1dbe 903b 4cbe
000003e0: 605d 8bbe ecba 903e 6206 6a3e f16b 233c
000003f0: d3af db3c 8386 8e3e fadc bfbd d1b0 213d
0.30846336 -0.09744043 -0.03867522 0.2752363 0.16883433 0.048558593 -0.112166025 -0.19761308
0.22404215 0.14843132 0.13021466 -0.27082464 0.10169292 -0.07092126 0.07284246 -0.047013376
-0.21373728 -0.119508766 0.028003588 0.087276086 0.0669347 0.33984044 -0.2561411 -0.24777898
-0.22013055 0.12566212 -0.1699172 0.13548112 0.0011120724 -0.045923457 0.13648124 0.21218856
0.18965274 0.020779064 -0.08414655 0.24721324 -0.1790363 0.46880826 0.097077645 -0.21411265
-0.15621404 -0.03215325 -0.120288186 -0.24823956 0.22421265 0.27025706 -0.026288481 -0.24737485
-0.11240081 0.060635928 -0.02602239 -0.21490735 0.18380164 -0.08426494 0.14709514 0.14202574
-0.10652366 -0.050844066 -0.075568385 0.13359812 0.098242864 0.42108673 -0.0768498 0.09184656
-0.02346033 0.35544798 0.13871722 0.20981565 -0.523327 0.21550612 -0.27507544 -0.02140396
-0.33027726 0.04312414 0.13832776 -0.1910446 0.22161229 0.064392656 -0.024993083 0.28687793
0.11516962 0.03247494 -0.07653857 -0.09425996 0.11724019 0.00468415 -0.42498735 0.060141135
0.1285964 0.3297459 -0.0019817373 0.1512558 0.18559088 0.07879601 -0.24951911 -0.108067214
-0.1254418 -0.090047255 0.17627627 0.15660073 0.10391676 0.21407996 -0.16325139 -0.13042639
0.38304135 0.17498134 -0.23362748 0.04686614 -0.0617061 -0.012844906 0.26001257 0.3561853
-0.12319131 -0.21290892 0.21875356 0.0126699945 0.10985173 0.027771473 0.18451211 -0.32086498
0.23524734 -0.32658845 -0.08701884 0.008174036 -0.20582056 0.050644673 0.055209525 -0.14985998
0.14402664 -0.06679084 -0.13076742 -0.19603322 -0.01036986 0.08836513 -0.12974565 0.03789588
0.13699561 0.09404621 -0.091589704 0.04455418 -0.12852235 -0.028913263 0.16790332 0.017060302
-0.06220831 -0.037753373 -0.021468677 -0.099365994 0.1538213 -0.33455697 -0.115819015 -0.041318133
-0.39446828 -0.19633271 0.011383155 -0.024896683 0.15172504 0.016114388 0.1302554 -0.50288963
-0.077602044 0.05696997 -0.03707929 -0.057758532 0.019917496 0.024442367 -0.016296411 -0.42903423
0.26518822 -0.28331938 0.0803906 0.0023567006 -0.07471046 0.40418366 0.38621897 0.07093394
-0.16447882 0.10112106 0.09701007 0.13700798 0.25616547 0.33979902 0.120919704 -0.080039255
-0.117351025 -0.1154049 0.073854394 -0.3334513 0.22259685 0.19810379 -0.13475591 0.040191658
-0.03161949 0.24527498 -0.12353745 0.16640481 0.17710595 -0.3981512 -0.19030531 0.009367003
-0.28380814 -0.08861805 -0.03963057 0.05679974 0.25645313 0.15180182 -0.052258812 0.21732326
0.027977083 0.14856504 0.038249236 0.06328995 -0.20270269 0.14855585 -0.31723398 0.24673602
-0.17540477 0.11702857 0.026412461 -0.07394196 0.08629231 -0.018404849 -0.168945 0.026607933
0.065292805 -0.32423487 0.057978593 -0.07744142 0.124771036 0.3232037 0.089940965 0.1160846
0.0005329321 0.3164151 -0.122464284 -0.24944761 -0.15323438 0.070877366 0.27145427 -0.4260652
0.14425963 -0.24300857 -0.11860329 0.11910648 -0.16388963 -0.1102411 -0.1542609 -0.19944596
-0.27219677 0.2826761 0.22853997 0.009974466 0.026817238 0.27837 -0.0936832 0.039475266

gcn2.bias f4 [64]
00000000: bb1f 2cbd 0483 bb3c bf23 a73d 6cd4 833d
00000010: 1e8e 683d 5564 6ebd 10b4 60bd c44b e0bd
00000020: 39f1 b13d ef68 2bbc 4f26 b73d c659 d63d
00000030: b71f 2a3e 696b 273d 2cc1 21be 1539 a1bd
00000040: 4d64 8abd 83f0 093c 20e8 c6bd 98d0 b83d
00000050: db8e ac3d c3ea 2abc 08dc 54bd 2d26 16be
00000060: 89d2 abbd 44cb 173d a303 c6bd d6ba a239
00000070: 3a9f 033d 5b54 e7bd 7ad7 a1bc a4a4 e0b8
00000080: 99eb cdbd 16e6 083d 9011 453c b82a 143c
00000090: 756b 51bc a650 63bd 093c 09bd f616 633d
000000a0: a04d 973d 3454 623d f969 8d3a 2b76 afbd
000000b0: b8f4 28be a166 4dbb b9de a33d 57ec 20be
000000c0: d886 5e3e f3e0 0a3c ec3c 90bc 6527 953d
000000d0: b9dc cebd bff9 bd3c 59b1 153c 9828 20bd
000000e0: 2978 463d 8de3 aebc e6d9 93bc 8210 c8ba
000000f0: b2b9 8bba 5000 ba3c 8310 a03d 660a 4cbd
-0.042022448 0.022889622 0.08161115 0.06437001 0.05677616 -0.058201153 -0.05485922 -0.10951951
0.08688588 -0.01046203 0.08942854 0.10466342 0.16613661 0.04087392 -0.15796345 -0.07872216
-0.06757412 0.008419159 -0.09712243 0.09024161 0.08425685 -0.010431948 -0.05196765 -0.14663
-0.08389766 0.037059084 -0.096686624 0.00031038251 0.032134272 -0.112953864 -0.019756068 -0.00010711819
-0.10054702 0.033422552 0.012028113 0.009043388 -0.012781967 -0.055496834 -0.03350452 0.05544182
0.07387853 0.055256084 0.0010789029 -0.085674606 -0.16499603 -0.003134169 0.08001465 -0.15715156
0.21731126 0.008476484 -0.017607175 0.072829045 -0.10100693 0.023190377 0.009136521 -0.039101213
0.048454437 -0.021348739 -0.018048238 -0.0015263709 -0.00106602 0.022705227 0.07815649 -0.049814604

gcn2.lin.weight f4 [64, 64]
00000000: da8a 11be aeef 1fbe d2e9 89be 47eb 3fbd
00000010: 1dd3 683c 406f c93d 80a8 9ebd 0869 7d3e
00000020: a923 d33e 7f5f 743e 533e a7bc 725d f73e
00000030: 7158 38bd 2785 2b3e 67fd e63d 7b09 6abe
00000040: 3f88 543d 06ff d43c 6a4d c5bb 8260 01bd
00000050: 1467 b1be bc5b 90bc 850a 913c 6f1a 083e
00000060: 544b edbd 4fd2 3e3c 1607 7ebe d7fa 853d
00000070: 7311 a03d 059b c53c 326c 97bd 393d 2dbd
00000080: c762 c0bd 3962 b6bd cbac d6be 60a5 3c3e
00000090: 98c9 313c 1b7f 533e 90f1 2cbe c4fc 1abd
000000a0: 8b7c 0e3e 8b9c 9cbd 925a 0ebe 07ff 6b3d
000000b0: b6c4 f5bd 4e66 ba3d eb3e 59be 9798 d13c
000000c0: 06d1 8a3d 7fee 783c 2df2 2dbd 57fa 333e
000000d0: 66d0 493b 9f46 5d3e e105 ed3c 941e b43e
000000e0: 3524 0d3e 65ed 5e3d 6b3a dcbd a1e2 69bb
000000f0: dc21 7cbd e46f 3c3e 15fe b23e eea0 aabc
00000100: dcf9 9fbe 868e 013e 4604 a5be c879 73bd
00000110: 2bd6 c73d 8b9c 97bd 7645 33bc d342 153c
00000120: 2489 263e 0c80 143d 996c 9ebe 2a8f b03e
00000130: 20e0 b43d 01c4 87bd 7e64 a33c 297c b6bd
00000140: c42b 553d b0b9 55bd be1d 583d 206e 973d
00000150: 8d02 eabb f882 383e 7b5f d7bc 199d f03d
00000160: 1537 40be 2e38 313e 0c26 ebbd f6a1 2cbe
00000170: 6062 3c3e 6ac8 963e b71d 113e c329 513d
00000180: 9c31 ffbe cbdf 89be 90ce 54be c41b ff3d
00000190: 00aa 4ebe d23c 0d3e fd36 d0be 1593 aebd
000001a0: 91f2 6d3e a4f3 e7be 7879 a2be dd4f cc3d
000001b0: 5cea 9e3d a62e 4cbe ffcd 15be cc36 55be
000001c0: a4b3 1f3d b742 fc3d 517c 84bd fcee febc
000001d0: a520 563d 438c 763d 01d9 24be 5389 bf3d
000001e0: 1414 db3d 6e51 e0bd 929b 743d a359 4abd
000001f0: 4a9e 42bd 4717 133e f53f e3bc 747f 89be
00000200: 7611 053d 552e 4a3e 9d28 93be 4f6f 9f3e
00000210: 515a 17bc f94d 16be 7b47 15bf bf1c 7c3e
00000220: 2cc6 c53d 4d28 4fbb 0c74 a5be 7bff 363e
00000230: 01a3 b4bc 9627 c6bc a83c 2f3e 5149 9fbd
00000240: db8c efbc a457 36be 9a6a 333e 3546 3cbe
00000250: cc0e ad3d 7b85 c0bd 5252 9a3e e662 68bd
00000260: 359a f43d 5997 923e 9127 8abe 9ab5 36be
00000270: 27b1 2a3e 3d8f 563e 24e5 33bc 3f50 e4be
00000280: 0e9e d0be 5f1d 4e3e a36e 833d 690f 8f3d
00000290: a5a4 1fbc 9541 c63d 8d14 08be 3fa3 82be
000002a0: 1fb5 e9bd bbc2 7bbe f633 a8be 0bb3 383e
000002b0: 983c 49be 3fdf 303e e0de 443d 814c f2bc
000002c0: 89f6 8e3e 3aa2 f73d ac8c a2be b4e8 423e
000002d0: 5631 4bbd 622b 463e 02b7 cabe 9bcf 673e
000002e0: e36d a03d 116c f8bc 676b 2dbe 6993 4d3d
000002f0: f3f5 233d 68b8 adbd 411e 8d3e 1fda cc3c
00000300: 1ae7 943e cd35 213d e4c8 1f3e 7c75 183f
00000310: ca45 4b3e dd99 943c 1b4a 9ebe f737 9ebd
00000320: 2580 a83d a7d3 97bd 521e b63c 0c9b b0be
00000330: cdbb 413d 0832 803d 3a3f 9bbd 300d 503d
00000340: aa92 6a3d 7ace 553d 3044 23bd 2f88 ccba
00000350: 7430 163d df32 0f3e 6b63 ac3e cde7 933c
00000360: 3b9d 00be 6176 013f d11e b3bd ae32 9bbe
00000370: 2771 643c 7103 833d dc4b a7bc b1ad 11be
00000380: 22a6 e83c 7fde 203f cbdd 0c3f 6815 29be
00000390: 4d07 ca3d be8c 23be 1e26 153e 5a5f 9cbe
000003a0: cb22 aa3d 383c 673e fc50 87ba e194 edbd
000003b0: df7e 8abd 02e0 933d a510 e33e 6423 febc
000003c0: a708 a93d abed 833e 2dbd 43be d4cd 6c3e
000003d0: cf61 81bd 512e 643d 66d5 093d cb33 81bd
000003e0: 3730 583e 0cc9 403e c222 2ebd a6b2 693e
000003f0: cc73 b63e ac9d e1bd f47d 9fbe 548c 013e
-0.14213124 -0.15618774 -0.26936203 -0.046855237 0.01421049 0.098356724 -0.077469826 0.24747097
0.41238144 0.23864554 -0.02041546 0.4831348 -0.04500622 0.16750012 0.112788014 -0.22855179
0.051887747 0.02600051 -0.0060211914 -0.031586178 -0.34648955 -0.017621867 0.017705211 0.13291334
-0.11586633 0.011646821 -0.2480739 0.065419845 0.07815828 0.02412177 -0.073936835 -0.042294715
-0.0939384 -0.08905453 -0.41928706 0.1842246 0.010851286 0.20653956 -0.16889024 -0.037838712
0.13914697 -0.07647046 -0.13901737 0.05761626 -0.1200041 0.09101544 -0.21215408 0.025585456
0.06778149 0.015193581 -0.042467285 0.17575966 0.003079438 0.21608971 0.028933467 0.3517958
0.13783343 0.054425616 -0.1075333 -0.003568806 -0.06155573 0.18402058 0.34959474 -0.02082869
-0.31245315 0.12652025 -0.32229823 -0.05944231 0.09757646 -0.07402905 -0.010941854 0.00911017
0.16263252 0.036254928 -0.30942228 0.34484226 0.08831811 -0.06629182 0.01994538 -0.089104004
0.05204369 -0.05217904 0.05276274 0.073940516 -0.0071414174 0.1801871 -0.026290646 0.11748714
-0.18771012 0.17306587 -0.11481866 -0.16858658 0.18396902 0.2944978 0.14171492 0.051065218
-0.49842536 -0.26928553 -0.20781922 0.12456468 -0.20182037 0.13792732 -0.40666953 -0.085241474
0.23237063 -0.4530307 -0.31733298 0.0997617 0.07759544 -0.1993967 -0.14629363 -0.20821685
0.038989678 0.12317412 -0.06469024 -0.031119816 0.052277226 0.060192358 -0.16098405 0.093523644
0.10697189 -0.109530315 0.059718676 -0.04940189 -0.047514237 0.14364348 -0.027740458 -0.26855052
0.032487355 0.19744237 -0.28741923 0.3113961 -0.009237842 -0.14678182 -0.58312196 0.24620341
0.09656939 -0.0031609714 -0.323151 0.17870896 -0.022050383 -0.024188798 0.17112982 -0.07777656
-0.02924197 -0.1780687 0.17521134 -0.18386157 0.08450088 -0.094004594 0.3014093 -0.056734942
0.11943475 0.28631094 -0.26983312 -0.17842713 0.16669141 0.20953079 -0.010979924 -0.44592473
-0.40745586 0.20128392 0.06417587 0.06985361 -0.009743844 0.096804775 -0.1328909 -0.25515172
-0.11411499 -0.24586003 -0.32852143 0.1803705 -0.19652021 0.17272662 0.048064113 -0.029577496
0.27922466 0.12091489 -0.3174795 0.19034082 -0.049607597 0.19352487 -0.3959275 0.22637789
0.07833459 -0.030324968 -0.16935502 0.05018941 0.040029477 -0.08482438 0.27562144 0.025006352
0.29082566 0.03935795 0.15603977 0.59554267 0.19850841 0.018139774 -0.30915913 -0.07725518
0.08227567 -0.07413416 0.022231255 -0.3449329 0.04729824 0.06259543 -0.07580419 0.050793827
0.057268776 0.052198865 -0.03985995 -0.0015604551 0.036667302 0.1398425 0.336696 0.018054867
-0.12559979 0.50571257 -0.08746112 -0.30312103 0.013942993 0.06397141 -0.020421915 -0.14226414
0.02839953 0.628395 0.5502593 -0.16512072 0.09864674 -0.15971658 0.14565322 -0.30541497
0.083074175 0.22581565 -0.0010323818 -0.11600662 -0.0676248 0.072204605 0.44348636 -0.031022735
0.082536034 0.25767264 -0.19115134 0.23125392 -0.06317484 0.055708233 0.03365078 -0.06308707
0.21112143 0.18826693 -0.042513616 0.22822055 0.3563522 -0.11016402 -0.31150782 0.12651187

mlp.0.weight f4 [64, 64]
00000000: 33c1 abbd 266d 40bb 8ede 46be 25fc 17be
00000010: 66eb 3f3e 4140 d53c 7f1b 1dbe db50 5dbc
00000020: 530f 0d3e 3d4b a63d ddd3 d4bd 9043 8f3d
00000030: aaa1 023e f15c 393e cff1 9ebe 916a 503d
00000040: 6611 85be 2956 49be 1d33 90bd 3334 903d
00000050: 2656 0b3e c639 02be d572 8bbd 536d b73d
00000060: e24c 9a3d f5bc 553e e3b7 70be 1661 2f3d
00000070: 9f20 983c 9859 90be 385c 75bd 71ca 143e
00000080: a121 05be 4381 3c3e 291d 54bc 7e97 ec3d
00000090: 9ed1 4d3e d946 33bd 0348 69be d32e 9e3e
000000a0: bd19 1fbc 690c 67bd 2c5b 143d 943c 12bf
000000b0: 8ae4 72bc 1868 e3bd eb45 d33d 9cdf 6dbd
000000c0: 96d6 613e 4c46 0cbe 52bb a43e ac7a 2f3e
000000d0: 1437 393b 3128 5cbd 489a 643d 520f 87be
000000e0: 3e73 083c 87d4 a53d a9e5 333d 83f5 82bd
000000f0: 2f9f 293d ad06 2f3e d629 373d 03f8 5c3d
00000100: abb1 57bd 885e 56be 4a52 863d 1c1d e43d
00000110: c383 c73e f40a 143e c97a 81bd 84ab 82be
00000120: e371 823e dbaf e53e 5faf 2c3d ed05 0cbe
00000130: c94e 263e 47be 80bd 5c13 64bd e5d2 303e
00000140: 281d 403e 9fe2 46be e8c2 8ebd fcf3 573e
00000150: e108 0cbd 1149 403e 088e 3c3e 4137 cabd
00000160: 689d f43d bbc1 00be 233a c53d 391a c7bd
00000170: 4d55 0c3e 782b 973d 93ca 753e 72a6 9cbb
00000180: bc0d b1be 39b4 5dbe 1fc3 84bd 1646 04be
00000190: ccb3 10be 617d 623e 2ea0 3e3d 3af9 0cbe
000001a0: 07b4 ba3d 0270 5c3d e43d 51bd b3b7 a5bb
000001b0: 7302 57be bc15 68be f01b 1dbd 5ea4 5bbd
000001c0: 153a 83be f36a 79be adcd 1e3e 67a4 a8bd
000001d0: 28d6 50be 5446 14bc 9f65 01be c824 4bbe
000001e0: 3d31 5fbb 06d7 4abd 831c 413e 24e0 68be
000001f0: adc3 29be 3171 e63c faaa 83bd 7610 e0bd
00000200: f9c3 f7bd 73de 373e 6385 05bd 4a73 23be
00000210: d800 993d 1a13 9c3c 0e56 813c c756 d5bb
00000220: 2384 bf3b feaf b0bd f71d f33d 7b5b f6bc
00000230: 1b28 1f3d 9bac 983d 9c0d 25bd 5a98 aabc
00000240: 423a 0b3d 5bf5 d63d 7a93 77bc 1014 b4bd
00000250: 965b ef3d eaf1 8ebd c466 0abd 7bb0 aebd
00000260: 5b77 2dbe ddfe 393d 92ef e3bc 75fd 9ebd
00000270: 9365 0a3d 159f 62bd acee a1bc eb12 3abd
00000280: c7d8 2cbd 301b eebb 72ad 11bd 3051 02be
00000290: 6bec f83a 3455 b33c 4479 30bd 3d23 343e
000002a0: 1f31 9b3c 1f39 c13c 8a16 b2bd 2435 2fbe
000002b0: 864a adbd 7ed9 3ebe e5a0 8ebb 2fbd 433d
000002c0: 2662 68bd dc01 7d3c a259 2e3c ca90 d8bc
000002d0: ca8a 9d3b 35aa 543d 4cf8 59bd a3f9 a7bd
000002e0: 0a74 cfbd a725 aabd a622 043d 6068 9bbd
000002f0: 2e46 41bd 9900 55bd 05a8 2e3e c1bc e9bc
00000300: b8f5 05bc 9aaa bd3d 3ff2 a53d 27c3 15be
00000310: 5648 36be 558d ebbc fbf2 803d e5c6 ae3c
00000320: ad87 7c3d e341 0ebe d1ef a23e 2bdc 303e
00000330: 8bae 453e 1979 7e3e fb65 81bd e5a4 54be
00000340: 361e 6cbd d584 943e a420 b9bd f297 23be
00000350: 2f55 353e 669c 0abe cff8 d4bd 7cd7 e4bc
00000360: 127f c3be 9030 4a3e 0383 d5be 1a53 3c3e
00000370: aa7f edbd cace 2f3d 2ecb b53d a3fa 053d
00000380: c5d8 b43d 1535 cf3d 0b18 533b 5557 f93c
00000390: c4a9 0cbe 2511 5cbe 4ec6 fa3a 0f94 1f3e
000003a0: aed0 e83d ff36 80bc 39ef c23d 20e5 abbd
000003b0: c259 b73d 0985 313d 4861 023e 4bb8 01bc
000003c0: 48e4 133e 1230 193c a0f4 b4bd 502a 4a3e
000003d0: e202 b8bc 9ec7 a4bd 5a92 2d3e 6e44 2e3e
000003e0: b9a2 073e 0e75 59bd eeaa 49be 07b2 b93d
000003f0: 1101 663e 2e03 41be 5e0d 753e 2ee1 a1bd
-0.08386459 -0.0029361933 -0.19420835 -0.1484228 0.18742141 0.026031615 -0.1534252 -0.013508047
0.13775377 0.08119819 -0.10391972 0.069953084 0.12756982 0.1810186 -0.3104386 0.05088288
-0.25989836 -0.19661774 -0.07040999 0.07041206 0.13607082 -0.12717351 -0.06809012 0.08956399
0.075341955 0.20872863 -0.23507647 0.042817198 0.018570242 -0.28193355 -0.0599024 0.1453035
-0.1300111 0.18408684 -0.012946405 0.11552332 0.20099494 -0.043768737 -0.22781377 0.308951
-0.009710726 -0.05640832 0.03621976 -0.57123685 -0.014824996 -0.11103839 0.1031607 -0.05807458
0.22054514 -0.13698691 0.32174164 0.1713664 0.002826159 -0.053749267 0.055811197 -0.26378876
0.008328257 0.08097177 0.043920193 -0.06394484 0.041411575 0.1709239 0.044717632 0.05394746
-0.05265967 -0.20934498 0.06558664 0.11138365 0.38967714 0.14457303 -0.063222475 -0.2552148
0.25477514 0.4486073 0.042159434 -0.13674136 0.16240992 -0.062862925 -0.055682525 0.1726795
0.18761122 -0.19422387 -0.06970769 0.21089166 -0.034188155 0.18777873 0.18413556 -0.0987382
0.11944085 -0.12573902 0.09630229 -0.097217984 0.13704415 0.07381338 0.24003057 -0.004780584
-0.3458079 -0.2165078 -0.06482529 -0.1291736 -0.14131087 0.22118141 0.046539478 -0.13766947
0.09116369 0.053817756 -0.051084414 -0.005057299 -0.20997028 -0.22664541 -0.03835672 -0.05362355
-0.2563025 -0.24357204 0.15508147 -0.08234482 -0.20394194 -0.009049971 -0.12636422 -0.1983825
-0.0034056448 -0.04952147 0.18858533 -0.22741753 -0.1657855 0.028130146 -0.064290956 -0.1094064
-0.12097926 0.17955951 -0.03259791 -0.15961948 0.07470864 0.019052077 0.015788104 -0.006510589
0.0058446093 -0.08627318 0.1187095 -0.030072918 0.038856607 0.07454797 -0.040296182 -0.0208246
0.033991106 0.104960166 -0.015110845 -0.08792889 0.116873905 -0.06979735 -0.03378941 -0.08529755
-0.16940062 0.045409072 -0.027824197 -0.07763187 0.033788275 -0.055327494 -0.019767128 -0.045428198
-0.042198922 -0.0072664246 -0.0355658 -0.12726283 0.0018991356 0.021891214 -0.043084398 0.17591567
0.018944321 0.023586808 -0.08695705 -0.17110115 -0.0846148 -0.18637654 -0.004352676 0.04778784
-0.056734227 0.015442338 0.010641487 -0.026436228 0.0048078047 0.051920135 -0.05321531 -0.08201911
-0.101295546 -0.08307963 0.032259606 -0.07588267 -0.04718607 -0.052002523 0.17056282 -0.028532388
-0.00817626 0.09261055 0.081028454 -0.14625226 -0.17801031 -0.028753916 0.06296345 0.021335075
0.061652828 -0.13892321 0.3182359 0.17271487 0.19304864 0.24850883 -0.06318279 -0.20766027
-0.057646 0.29007593 -0.09039429 -0.15975931 0.17708276 -0.13536224 -0.10399019 -0.027934782
-0.38182884 0.19745088 -0.41701517 0.18391076 -0.115966156 0.04292182 0.08876644 0.03270973
0.08830408 0.101175465 0.0032210376 0.030437151 -0.13736635 -0.21490915 0.0019132586 0.15583824
0.113679275 -0.015651224 0.09518284 -0.083933115 0.08952667 0.043339763 0.12732422 -0.007917474
0.14442551 0.00934984 -0.08835721 0.19742703 -0.022462312 -0.080458865 0.1695036 0.17018291
0.13245668 -0.053090148 -0.19694111 0.09067159 0.22461344 -0.18848869 0.2393088 -0.07904278

mlp.0.bias f4 [64]
00000000: 2f80 58be dcd7 353e 9f67 e4bd 5d32 cebe
00000010: 61e8 45be 3e42 51be 20f3 513c 346c 85be
00000020: 2106 bcbd fb7f 02bd 7766 403e 9a4c c0bc
00000030: 9191 3bbd ec2d 90be 2dd8 933d 084b 8dbe
00000040: 9c5a 1bbd d429 8abe 775e 9ebe 4734 3a3e
00000050: 1258 96bd 0255 04be 4862 62be 0fc4 9ebe
00000060: f1b5 93bd ed35 4abe 7291 1cbe 94d3 4dbe
00000070: e96c 69bd ac88 debd 1ba2 c93d 4a14 b9bd
00000080: f297 d2be 3100 6bbe fffc 9bbe b74b 593e
00000090: 7655 b3bd 0a09 5dbe 62bb 12be d873 b1bd
000000a0: 2b64 67be 48e4 5bbe 38c7 4abd dc05 8abe
000000b0: a369 3dbd 2046 2c3e 9212 d63d 8fa0 3abd
000000c0: 3336 90bc 9a96 df3d 00dd a3be 604a 8e3d
000000d0: 010f 553d bcd8 483e f9b5 a3be 766d 79be
000000e0: 35d2 423e fb48 123e 1447 ee3d eea2 583e
000000f0: a451 09be abba fd3d 5031 93be e240 1dbe
-0.21142648 0.17758125 -0.11152577 -0.402728 -0.19326927 -0.20435426 0.012814313 -0.26059115
-0.091808565 -0.031860333 0.18789087 -0.023474026 -0.04579312 -0.28160036 0.07218967 -0.27596307
-0.03792821 -0.26985037 -0.30931446 0.18184005 -0.07341017 -0.12923053 -0.22107804 -0.31008956
-0.07212437 -0.19747134 -0.15289858 -0.20100242 -0.05698863 -0.10865912 0.09845372 -0.09037073
-0.4113155 -0.22949292 -0.30466458 0.21220289 -0.08756535 -0.2158548 -0.14329293 -0.086646736
-0.22596805 -0.21473801 -0.049506396 -0.26957595 -0.04624332 0.16823626 0.10452761 -0.045563277
-0.01760397 0.10917397 -0.32004547 0.0694778 0.052016262 0.19613928 -0.31974772 -0.24358162
0.190255 0.14285652 0.11634651 0.21155903 -0.1341005 0.1238912 -0.2874856 -0.15356782

mlp.2.weight f4 [2, 64]
00000000: ad25 113e 8f19 383e 84c8 63bd cc9b 743e
00000010: 2a94 783c e5fc 0e3e de7c cdbd bdef 133d
00000020: 7d28 22bd 5ffd 11be 229d 23be 15e9 5d3d
00000030: f225 9c3d 3aa8 9cbd db6b e83d 2efe 133e
00000040: 6b1e c3bd 4088 f5bd ef3d 4c3e 902d b6bd
00000050: 2ef2 b4bb 6faa d8bd fd7f 333d a080 75bd
00000060: 487d 33be ae63 2cbe ae96 c13c d245 183d
00000070: 978e 6fbc 229c bdbd 3986 e23d 19cd 8e3d
00000080: d862 443e 6f8f 87bd 532a cbbc c26d cb3d
00000090: c810 b6bc aca2 cc3c 78d3 b93d cb00 7d3e
000000a0: d470 d9ba b765 acbd fbfa 24bc 7d6f cabb
000000b0: 9a05 44be 8639 b33d 1254 193e 2789 653d
000000c0: abdc 04be 4ca1 19be f960 e7bb f364 673d
000000d0: 404d 303e 60f1 d6bd 3fbc 78bd c311 943c
000000e0: 0b38 28be a861 fbbd 7b0a 053d fc7e d33e
000000f0: 262b 93bd 85f2 06be f22e d33c d638 14be
00000100: ecab b9bd ec3f 5bbe d8ef 17bd 37cb e0bd
00000110: 377b 2f3d b008 0d3b 37a0 993d 7eb5 febd
00000120: 37e0 7fbc 0ab6 5b3e 2061 073e 7458 35be
00000130: 3e2c e5bd a87c 253d 118f 03be d954 14bc
00000140: d2a9 873d 5b29 cb3d 2263 2ebd 4d9a 9d3d
00000150: 34e5 433d 39c0 ecbc 8433 a83d 6697 33bd
00000160: 828d 1a3e a33e 443e 5280 983c a930 623d
00000170: 22b8 f7bd 75d4 78bd 6a81 aabd 93af a23d
00000180: b07c 3ebe 7475 84bd cf6d 7bbd 70d7 1ebe
00000190: 65e2 f7bd 2f48 863d ebfd 3dbe a0eb 60bd
000001a0: a979 833c 54a9 843d b3ce 95bd 346e 3fbc
000001b0: 06be 8c3e 1326 41be e59a 17be c565 f73c
000001c0: 7328 363d 02e1 8f3d d4e1 983c 64e7 1ebe
000001d0: 5b40 9bbd dc3c 8f3c af59 45bd a42a 84bd
000001e0: df81 313d aba6 823d 3d9f 163e 34ec a4be
000001f0: 3a62 ef3d bdc2 0f3e 3e8d 1cbd 4cc8 263e
0.14174528 0.179785 -0.05561115 0.23887557 0.015172044 0.13963659 -0.10033582 0.036117304
-0.039589394 -0.1425681 -0.1597791 0.054177362 0.07624425 -0.07649274 0.11348697 0.1445243
-0.09527286 -0.11988878 0.19945501 -0.08895409 -0.005522034 -0.10579383 0.04382323 -0.05993712
-0.1752826 -0.168349 0.02363142 0.03717596 -0.014621398 -0.092582956 0.11060757 0.06972713
0.19178331 -0.06619155 -0.024800455 0.09933044 -0.022224799 0.024979912 0.090735376 0.24707334
-0.0016589412 -0.08417838 -0.010069604 -0.006177841 -0.19142762 0.08751206 0.14973477 0.056039
-0.12974803 -0.15002936 -0.0070611206 0.056492757 0.17216969 -0.104952574 -0.0607264 0.018074876
-0.16427629 -0.12274486 0.032480698 0.4130782 -0.07185964 -0.13178451 0.025779221 -0.14474806
-0.090659946 -0.21411103 -0.037093967 -0.1097626 0.042842116 0.002152007 0.07501262 -0.12436961
-0.015617422 0.21456161 0.13220644 -0.17709523 -0.11190079 0.040402085 -0.12847544 -0.009053432
0.066241875 0.09919997 -0.04257501 0.07695446 0.047826007 -0.028900253 0.08212951 -0.043845557
0.15093043 0.19164519 0.018615875 0.055222187 -0.120956674 -0.06074949 -0.08325465 0.079436444
-0.18602252 -0.06467715 -0.06138402 -0.1551187 -0.12103728 0.06556737 -0.18553893 -0.05491221
0.016049223 0.06477609 -0.07314815 -0.011683989 0.27488726 -0.1886218 -0.14805181 0.030199895
0.04447217 0.07025339 0.01866237 -0.15517956 -0.07580634 0.017485075 -0.048181232 -0.064534456
0.043336745 0.06379446 0.14709182 -0.3221146 0.11688657 0.1403913 -0.038220637 0.16287345

mlp.2.bias f4 [2]
00000000: ecb8 11be 9f12 1d3e
-0.14230698 0.15339135
